context/test_toy_model.pt (torch, 16160 bytes, 6 tensors)

weight f4 [8, 3, 3, 3]
000000 42 1b da bc 93 28 04 3e 75 be 45 3b fe 7d ed bd
       -0.026624326 0.12906103 0.0030173336 -0.11596297
000010 e2 49 b7 3d 55 dd 98 bd 3e 58 3e be c9 37 0a be
       0.08949639 -0.07464091 -0.18588349 -0.13497843
000020 06 55 fd 3d e9 cf ae 3d 82 22 b4 3d 94 bd 4e bd
       0.123697326 0.085357495 0.08795644 -0.050473765
000030 10 d1 a8 3d 84 e5 11 3e 05 24 a7 3d c1 42 35 be
       0.082430005 0.1424771 0.08161167 -0.17701246
000040 3a 84 30 3e d9 bc 30 be 41 d8 15 3e 2a ac 18 be
       0.1723794 -0.1725954 0.14633276 -0.14909425
000050 27 ba b7 3d 63 19 bb bd 3e c2 27 3e f9 cd 8c bd
       0.089710526 -0.091357015 0.16382691 -0.06875224
000060 25 02 8c 3c bb 28 9a 3c fb 91 0f 3e d4 14 39 3b
       0.017090866 0.01881825 0.14020531 0.0028241174
000070 05 fc 1e 3e 74 b2 57 3c 61 36 98 3c 20 ce 16 3e
       0.15525825 0.013165105 0.018580617 0.14727068
000080 98 0d 5a bd 5d 6f 8e bd 02 12 06 be 6b d4 8d bd
       -0.05323562 -0.069548346 -0.13092807 -0.06925281
000090 5b d4 94 bd 8c d9 30 be 5b 6d 3c 3e 31 20 23 be
       -0.07267066 -0.17270488 0.18401091 -0.15930249
0000a0 21 d5 aa bb d7 42 2d bc 6a 12 6a bc 7e 83 1e be
       -0.005213395 -0.010575018 -0.014286617 -0.15479848
0000b0 d0 c8 3d be 8e 80 9d 3d 45 37 75 3d aa c0 84 bc
       -0.18533635 0.076905355 0.059867162 -0.01620515
0000c0 e2 e5 3a be 31 8d 37 bd 18 a0 8f 3d 88 10 0d 3e
       -0.18251756 -0.044812385 0.07012957 0.13775837
0000d0 be b8 f7 bd 42 b0 05 be d5 a5 96 3d e3 1a 04 3e
       -0.12095784 -0.13055518 0.07355849 0.12900881
0000e0 29 48 1c be 5b e5 ee 3d 94 54 01 3e 63 6f 40 3e
       -0.15261902 0.1166484 0.1262992 0.1879249
0000f0 2e 74 af bd f8 d4 c4 bd e1 8e 10 3e ab c7 1e be
       -0.085670814 -0.09610933 0.14117004 -0.15505855
000100 d9 3a 50 bd d4 47 1a 3e 72 55 4b 3d 70 bb b3 bd
       -0.05083737 0.15066463 0.049642034 -0.08775985
000110 d8 0a a2 bd d6 54 8f 3d ad 67 8e 3d 08 3b a4 3b
       -0.079122245 0.06998603 0.06953368 0.00501192
000120 1f c8 9d bd 6e a8 06 bb 19 a2 42 be c9 b3 32 3e
       -0.07704186 -0.002054717 -0.19007148 0.17451395
000130 16 7a 36 3e 55 15 27 3e 4e c3 b5 3c 9c bd 36 3e
       0.1782001 0.16316731 0.022187855 0.17845768
000140 db 10 1a be 75 b9 e2 3c 9d a8 f5 3d f1 9f c3 bb
       -0.15045492 0.027676323 0.11995051 -0.0059699942
000150 8c 3c 21 be 0c 67 dc 3c 92 78 af bd 61 4e 88 3d
       -0.15745753 0.026904605 -0.08567919 0.066555746
000160 13 63 0d 3d e9 8d 5a bd 2e c5 67 3d d9 64 ac 3c
       0.034518313 -0.053357992 0.05658453 0.021044182
000170 01 9e c1 bc ff f3 87 3d 57 6b 29 be 6d 2d 6d bc
       -0.023634912 0.066383354 -0.16544853 -0.014476162
000180 87 39 10 3d 2d d5 75 3d 64 89 c0 3d 25 0f 28 be
       0.035211112 0.060017753 0.09401205 -0.16412027
000190 f5 24 22 bd 8d 99 2f bd 70 e6 dc 3d 8a 13 ac bc
       -0.039586026 -0.042871047 0.1078614 -0.02100541
0001a0 df c9 23 3c f4 f0 8c 3d e8 fe 29 3d 85 4c a0 bc
       0.00999686 0.06881896 0.041502863 -0.019567737
0001b0 88 ab 35 3e 4d f1 d9 3d 24 21 2e be 5d 99 93 bd
       0.17741215 0.106417276 -0.1700483 -0.07206986
0001c0 a5 1f 38 3c f1 27 c2 bc 25 91 44 be f7 a3 02 3e
       0.011238013 -0.023700686 -0.19195993 0.1275786
0001d0 5b 9f 08 be 71 44 9a 3d 39 dc 0f 3e d3 29 91 bd
       -0.1334204 0.075325854 0.14048852 -0.070880555
0001e0 05 4a 8b 3c e3 55 31 be 24 34 ff bd 3c 42 22 3e
       0.017003069 -0.1731792 -0.12461117 0.15845579
0001f0 85 83 1b 3e 7b 2b 1b bd b3 bd 47 bd 1d 03 16 be
       0.1518689 -0.037883263 -0.048764896 -0.14649625
000200 5d f2 99 bc f3 32 cf bc f9 6c 19 bd 83 3b 13 be
       -0.018792326 -0.02529285 -0.03745744 -0.1437817
000210 80 1d 29 3e d9 9b ad 3b 8a 7e 25 3e a7 d6 b6 3d
       0.1651516 0.0052981195 0.16161552 0.089276604
000220 45 6f 21 3e 70 94 94 3d 7b 50 d1 bd c1 73 20 3e
       0.15765102 0.07254875 -0.102204286 0.15669157
000230 97 36 fd bd f9 b1 35 be cc 22 16 be e3 48 24 be
       -0.12363928 -0.17743672 -0.14661711 -0.16043429
000240 50 78 2a 3e 78 61 93 3d fb 75 6d 3b 79 ad 88 3d
       0.16647458 0.07196325 0.0036233652 0.06673712
000250 99 fe bf 3d 68 dc 21 be 70 5d a5 3b f5 18 f8 3d
       0.093747325 -0.15806735 0.005046539 0.12114135
000260 a3 19 fb 3d 8d 3e 7b 3c 6d b4 3e be 13 fd 1a bd
       0.12260749 0.0153347375 -0.18623514 -0.037839007
000270 86 65 5b 3d 65 b2 85 3d c7 91 00 3e 4c 27 b8 3c
       0.053563617 0.06528167 0.1255561 0.022479676
000280 48 1f 1a 3e 1d 47 32 3e 68 65 46 bc c4 e8 e8 3d
       0.15050995 0.1740994 -0.012109138 0.113725215
000290 fd 55 2c be ce 07 51 3d 5b c6 bf bc 66 44 74 bd
       -0.16829677 0.051032834 -0.023410013 -0.059635542
0002a0 91 ba bb 3d a7 0d 22 3e 47 4a 03 3e 46 3a b4 3d
       0.09166444 0.1582552 0.12821303 0.08800177
0002b0 78 c9 8b 3c 57 1d 79 ba b0 dd 24 be 0f 6e 40 3e
       0.017063841 -0.0009502968 -0.16100192 0.18791984
0002c0 59 49 b6 bd c2 d5 e9 3d 5a ed 36 3e 83 8b ad bd
       -0.08900709 0.11417724 0.1786398 -0.084738754
0002d0 dc 45 08 bd 4c 37 60 bc 6f c5 c5 bd 05 fe 00 be
       -0.033269748 -0.013685059 -0.09656798 -0.12596901
0002e0 78 b2 3c be 84 5f 58 3d f1 db 44 3c 9b 4d 21 3d
       -0.18427455 0.052825466 0.012015329 0.03938065
0002f0 95 83 8c bd 20 c5 9b 3d fb a4 9a 3d 93 63 93 bd
       -0.06861035 0.07605958 0.07550999 -0.07196727
000300 08 39 20 3e e2 0b 06 be 0e b1 d1 bd 3a e9 33 3d
       0.15646756 -0.1309047 -0.102388486 0.043923594
000310 7f 59 10 bb 7e 01 e5 bc 64 6b 1d 3e 0b d9 92 3d
       -0.0022026 -0.027954813 0.15372998 0.07170304
000320 08 8c 7a bd 4a 36 18 3e 1e 3e 01 3e f0 87 97 3d
       -0.0611687 0.1486446 0.12621352 0.07398975
000330 b2 6b 1b 3e 55 e4 c5 3d 33 f8 78 bd 19 40 af bd
       0.15177801 0.096626915 -0.060783576 -0.085571475
000340 62 78 97 3d 4d 39 13 3e de fe 43 3e 1e c4 7f bd
       0.07396008 0.14377327 0.19140193 -0.06244289
000350 73 81 9c bd 48 7d 29 3e 3b d2 93 3c af 28 de 3d
       -0.07641878 0.16551697 0.018044582 0.108476035

bias f4 [8]
000000 0a f0 97 bc 30 1d 1f be 97 70 1d be e2 d0 4c bd
       -0.018547077 -0.15538478 -0.15374981 -0.050003894
000010 f1 e9 40 3d 29 57 50 bd ce b1 17 bd cf b5 fe bd
       0.047098104 -0.050864372 -0.037034802 -0.12437021

weight f4 [8, 8, 3, 3]
000000 2a 97 eb bd bd 64 31 3d 20 12 84 3d a9 f9 ae 3d
       -0.11503442 0.043308962 0.064487696 0.08543713
000010 65 ef 08 3d 4b 73 8d bd e4 dd 31 3d 5a 35 e6 3d
       0.03343143 -0.06906756 0.043424502 0.11240645
000020 0a ab b9 3d ac 56 40 bd c5 50 ef 3d 1a a3 af bd
       0.09065826 -0.046957657 0.116853274 -0.08576031
000030 9d 3e 37 bd 42 70 e8 3d c0 89 1e bd 73 35 b7 bd
       -0.044737447 0.113495365 -0.038705587 -0.089457415
000040 45 cb 62 bd 8e 37 e4 bd f8 90 41 3d 9f 55 c3 3c
       -0.055369634 -0.11143409 0.047257394 0.023844538
000050 0f 31 1a 3d 90 75 b0 3d 80 2a 57 bc 57 54 eb bd
       0.037644442 0.08616173 -0.013132691 -0.11490696
000060 3a dc 8e 3d 26 2b ae 3d 17 f6 85 3b 54 3a b8 bd
       0.06975599 0.08504324 0.004088174 -0.089955
000070 7a 40 9b bd 4f bd b6 3d 8c 9e 70 bd 78 54 92 bd
       -0.07580657 0.089228265 -0.058744952 -0.071450174
000080 27 b2 45 3d 8b a6 d9 3d 30 51 dc bd 48 70 d3 3d
       0.048265602 0.10627469 -0.10757673 0.1032415
000090 f0 26 c3 3d c4 51 c6 3c 9c a1 0d bd 3b 7b ca bc
       0.09528911 0.02420891 -0.03457795 -0.024716964
0000a0 54 a9 83 3d 36 45 30 3d e1 13 be 3d a9 bf 45 3d
       0.06428781 0.043034755 0.09281135 0.048278484
0000b0 a5 b3 df bd 80 23 c4 3d 00 69 d2 3d c1 08 0d bd
       -0.10922936 0.095770836 0.102739334 -0.034432177
0000c0 58 6a ac bd fd cd cc bd ff 30 50 3d f9 03 8d bd
       -0.08418721 -0.10000227 0.050827976 -0.06885523
0000d0 7d 16 df bd 79 cd ca 3d 1a 8a 90 bc 6b 57 4b bd
       -0.10892961 0.09902472 -0.017643977 -0.049643915
0000e0 50 9b bf 3d 96 14 77 3b 26 da fe bc 8d 2b 87 3d
       0.093557954 0.003770148 -0.03110988 0.066001035
0000f0 bf f5 91 3d 04 4f 85 3d 4e 8c 44 3d 0c 55 c0 bd
       0.071269505 0.06509212 0.047985367 -0.093912214
000100 2b 6c d9 3d 7b 03 d3 3c 4a e6 0f bd d3 89 98 bc
       0.106163345 0.025758496 -0.03513173 -0.018620407
000110 61 03 c2 3d cf 20 52 bd 0c 46 9f bc 7e 33 76 bc
       0.09473301 -0.05130082 -0.01944258 -0.015026925
000120 fd 31 9e 3d 99 d6 d4 3d f1 2b 03 bd 69 f3 bd 3d
       0.07724378 0.10392494 -0.032024328 0.092749424
000130 67 35 96 bd a7 7a 04 3d 29 f7 be 3d cd 8e e7 3d
       -0.073344044 0.032343533 0.09324486 0.11306534
000140 55 70 30 3b d2 b0 a0 bd b2 56 d4 3d bb c5 d4 bb
       0.0026922424 -0.07846226 0.10368098 -0.006493298
000150 60 dc af bd 6b fc ce 3d b9 02 56 bd 02 61 60 bd
       -0.08586955 0.10106739 -0.05224869 -0.054780014
000160 15 62 81 3d fe a0 46 3b 24 db 86 3d b5 ff 11 3d
       0.06317536 0.0030308361 0.065847665 0.03564425
000170 0e d8 4c 3d 42 31 48 bd 02 e3 b4 3c b7 51 3b 3d
       0.050010733 -0.0488751 0.022080902 0.045732226
000180 75 21 35 bd 39 bf 08 bd 48 7d db 3d 78 54 a7 3c
       -0.04422136 -0.03338549 0.10717255 0.02042602
000190 fd 3e 91 bd f8 4f 3f bd 33 f6 ec 3d d2 7d e8 3d
       -0.07092092 -0.046707124 0.11570396 0.11352123
0001a0 33 6f aa bb 65 db e2 3d 86 4b c7 bb ec 75 64 bc
       -0.0052012443 0.110770024 -0.006082001 -0.01394413
0001b0 8e 0c 1a bd 16 b3 9e 3c 76 5b 2a bc af ed 2a bd
       -0.03760963 0.019372504 -0.010397783 -0.04173058
0001c0 ab f5 77 3d e0 fb b4 3b 51 cb ed bd 7b af e5 3d
       0.06053702 0.00552319 -0.11611045 0.11215111
0001d0 be 41 a9 bd 31 03 e0 bd 42 c3 f0 bc f9 c9 2a 3d
       -0.082644925 -0.10938109 -0.029389981 0.041696522
0001e0 e8 b1 94 bd 68 1c 61 bd 10 75 62 bd 23 f0 13 bd
       -0.072604954 -0.05495873 -0.05528742 -0.036117684
0001f0 74 bf 1b 3d b5 bf db 3d 02 39 b3 3c b6 30 9e 3b
       0.03802438 0.107299246 0.02187777 0.004827584
000200 50 8e 62 bd 76 61 9c bd c3 36 b0 3c 15 ed ea 3d
       -0.0553115 -0.07635777 0.021510487 0.11471001
000210 2f 69 44 bd 45 52 9d 3d 2f 41 4f bd e3 fb 7f bc
       -0.047951873 0.07681707 -0.050599273 -0.015624019
000220 6b f1 65 3d c6 ea 5e 3d af 54 b9 3c 2d 57 4e 3c
       0.056138437 0.054423116 0.022623388 0.0125940265
000230 64 38 a6 3c d8 27 e6 3d 04 94 5c bd 2e 62 b9 bd
       0.020290561 0.11238068 -0.053852096 -0.090519294
000240 11 15 ae bd 58 d8 a9 bd df 39 62 bc af 14 fa bc
       -0.08500112 -0.082932174 -0.013807743 -0.03052744
000250 f5 25 24 3d 9d 52 3c bd e4 e5 bf bd 75 33 0b 3d
       0.04007526 -0.045977224 -0.0937002 0.03398462
000260 db cd da 3d 2e eb 8e bd 84 5d de bd 31 4b 06 3d
       0.10683795 -0.06978451 -0.108576804 0.032786552
000270 e3 2c e5 3d ff 2a bd bd b4 ea 1b 3c 96 2f 91 3d
       0.11190202 -0.092367165 0.009516407 0.070891544
000280 e4 7f 4e bc 34 b3 02 3d f7 1e c2 bc 1c 1c c4 3d
       -0.012603734 0.031909183 -0.023696406 0.09575674
000290 53 ed db 3d ed fb bd 3c 66 94 10 3d 04 4d 7a 3c
       0.107386254 0.023191417 0.035297774 0.015277151
0002a0 0a c1 eb 3d 62 35 cf 3d 9e c3 72 3c ed b8 7c 3d
       0.11511429 0.10117604 0.014817147 0.061699796
0002b0 b0 25 4b bd 9a f3 d9 bd a6 9f 07 3d 67 a6 e7 3d
       -0.04959649 -0.106421664 0.033111237 0.113110356
0002c0 01 03 9b bd 97 c7 90 bd 12 d7 0e bd e9 68 ae bd
       -0.07568932 -0.07069319 -0.034873076 -0.08516104
0002d0 ac 5c 1e 3d 46 11 84 bd 15 47 be bd c1 d2 88 bd
       0.038662598 -0.06448607 -0.092909016 -0.06680823
0002e0 a7 eb 08 3d 4c ba 6e 3d 24 ce 7d 3d 1d 0c 1b bd
       0.03342786 0.058283135 0.06196417 -0.03785335
0002f0 94 46 8b 3d 8e 5d 2b bd de ba e6 bc d2 01 23 bd
       0.06800571 -0.041837268 -0.028165277 -0.039796658
000300 e8 b0 9e bc 90 08 22 3d 80 79 b3 3c 6a ee 9a bd
       -0.019371465 0.039558947 0.021908522 -0.07565005
000310 6e 3e c9 bd 14 5c e2 3c 34 20 5f 3c 5c 5d c5 3d
       -0.09826361 0.027631797 0.013618518 0.096369475
000320 8b f2 d0 bd 8f fa 92 3d b3 d1 18 3d 7d 16 85 3d
       -0.102025114 0.071766965 0.03730936 0.0649843
000330 7a fe 8e bd fe 03 65 bd 1b 51 c3 bd 4b 31 93 bd
       -0.06982131 -0.05591201 -0.09536954 -0.07187136
000340 82 9d c6 3d c7 05 0c 3d a3 49 7f bc 0c c2 53 bc
       0.09698011 0.034185197 -0.015581521 -0.012924682
000350 01 15 d9 bd 80 33 bf bd dd 86 87 3d e6 94 46 bd
       -0.10599709 -0.09335995 0.0661752 -0.048481844
000360 2d d2 d5 bd fe 3b e9 3d 40 49 db 3d 4f 06 c8 bd
       -0.104404785 0.11388396 0.10707331 -0.09766828
000370 b4 e4 9b bd fc c5 b9 3d f7 42 dd bc 8d 31 ce bc
       -0.07611981 0.09070966 -0.02700947 -0.025170112
000380 12 02 ab bd 30 5f 71 3d 75 64 c8 bd f5 c1 b6 3a
       -0.08350004 0.05892867 -0.09784786 0.0013943302
000390 ff fd 98 bc 0e 59 9e bd f8 c1 ec bd ea 83 7e bd
       -0.018675802 -0.077318296 -0.11560434 -0.06213752
0003a0 14 5c 9c 3c 87 32 0b 3c 46 46 aa bd 78 62 d9 bd
       0.019086875 0.008495933 -0.08314185 -0.106144845
0003b0 ad 0f cd 3d 99 7e dc 3d 93 9a 64 bd 73 bc eb 3d
       0.100127555 0.10766334 -0.055811476 0.11510553
0003c0 9f 92 d7 bc 57 2e a1 bd 02 6c cb bd 72 73 d9 bd
       -0.026315032 -0.07870167 -0.0993271 -0.106177226
0003d0 d7 21 e0 bd 7f c1 2d 3c 9e c5 78 3d cf 6e d1 3c
       -0.109439544 0.010605215 0.060735337 0.025565533
0003e0 ab 0a c4 bd 45 2a e5 bd 20 38 57 3d 9b c3 b6 bb
       -0.09572347 -0.11189703 0.05254376 -0.005577517
0003f0 01 26 a6 3c 70 46 88 bc fc 3e bf bc e9 de c8 3d
       0.020281794 -0.01663515 -0.023345463 0.09808142

bias f4 [8]
000000 9b 54 86 3b 15 cc cd 3d f3 79 75 3d a4 18 b9 bb
       0.004099441 0.10048691 0.059930753 -0.0056486893
000010 a3 d7 d0 bd 24 06 de 3d 8f d0 84 3d 72 ce d4 3d
       -0.101973794 0.10841015 0.06485092 0.10390939

weight f4 [4, 8]
000000 79 69 06 3e dd f4 8e bd 44 fb f4 bd d9 9a 41 be
       0.13126172 -0.06980298 -0.119619876 -0.18906726
000010 a9 b3 13 be 34 ac b3 be b2 8c 80 be 3b 5d d6 bd
       -0.14424004 -0.35092318 -0.25107342 -0.10467001
000020 e8 3d 0d 3c d1 43 db 3d 41 67 9d bd 40 3e 4e 3d
       0.008620717 0.10706294 -0.0768571 0.050352335
000030 f0 fa 81 be a8 94 af be a0 61 4a bd 87 60 4d bd
       -0.25386763 -0.34293103 -0.04940951 -0.050140884
000040 31 a8 37 be 54 06 2d be 87 bb 89 3b 69 ec 08 3e
       -0.17935254 -0.16896945 0.004203263 0.13371433
000050 49 87 27 3e 8f f5 e0 bd b8 90 b0 bd 54 b7 13 3e
       0.16360201 -0.109843366 -0.08621353 0.14425403
000060 85 0c f6 bd 62 af 83 3d 0e a8 66 be 5d 22 9a 3e
       -0.12014107 0.06429936 -0.22525045 0.30104342
000070 85 76 bb bd 17 0c 63 bd f6 13 a5 3e 2f a9 1c be
       -0.09153465 -0.05543145 0.3224179 -0.15298913

bias f4 [4]
000000 6a 5a aa 3e 31 02 b0 3d 40 39 ad 3d 61 9a 16 3d
       0.33272105 0.08594168 0.08458185 0.03676832
